models/fraud/1/model.onnx (onnx, 12970 bytes, 11 tensors)

sequential/dense_3/MatMul/ReadVariableOp:0 f4 [32, 1]
0.3006638 -0.08214565 0.35753894 0.3448156 0.26533684 0.45515335 -0.65069306 0.57957846
0.2626077 -1.1155833 -0.90598375 -0.5591184 0.76561534 0.4722746 -0.6939098 -0.40242982
-0.06719412 0.214393 0.56846815 -0.70837295 -0.7441048 -0.07846679 0.56078994 0.705986
-0.76972646 0.16944964 -0.7884297 0.43803236 0.3531431 -0.5710861 -1.1761957 0.22295752
00000000: 9bf0 993e fb3b a8bd 580f b73e ac8b b03e
00000010: 3bda 873e dc09 e93e d293 26bf 415f 143f
00000020: 8474 863e 6fcb 8ebf 8dee 67bf 6222 0fbf
00000030: 5eff 433f facd f13e 13a4 31bf 480b cebe
00000040: 129d 89bd d789 5b3e 2187 113f ee57 35bf
00000050: a77d 3ebf 32b3 a0bd ee8f 0f3f 80bb 343f
00000060: cb0c 45bf 3584 2d3e 87d6 49bf c745 e03e
00000070: 2ccf b43e b332 12bf 958d 96bf fa4e 643e

sequential/dense_2/MatMul/ReadVariableOp:0 f4 [32, 32]
0.30137882 -0.6497659 0.38406962 0.3707229 -0.13239074 -0.2674615 0.19169709 0.2488343
0.40638626 0.3863476 0.09709411 0.27983445 0.029761069 -0.17509982 -0.001261059 0.4039664
-0.38545266 0.17075136 -0.2454853 0.1513258 0.24584493 0.20909187 -0.050368186 -0.28441972
0.022513496 0.31706488 0.32394126 0.052280493 0.18798779 0.5160631 0.16383024 0.43869102
-0.015290758 -0.14987879 0.07309908 0.02645703 -0.051790774 -0.07976408 -0.26771852 0.020943332
-0.047263958 -0.060614575 -0.5587577 -0.29025266 0.03594347 0.10934068 -0.011533615 0.022631915
0.0074920864 -0.24897237 0.06133363 -0.43280742 -0.6517573 -0.2554807 0.13676871 -0.0027748446
-0.12411337 -0.26410478 -0.18675388 -0.034126546 0.09567948 -0.0047095404 -0.24427962 0.07301699
0.44003528 -0.3687757 0.004639729 0.17305341 0.21173027 0.14993125 0.2218429 -0.03558564
0.42744145 0.09451771 0.026978737 0.21836697 0.060933914 0.04716394 0.03128718 0.41411304
-0.55055714 0.34440014 0.05079192 0.21497534 0.075332634 -0.4083951 0.039516374 0.18420024
-0.25390676 0.03266639 0.0065596574 0.12926547 0.24132863 0.051175483 -0.089114584 0.12515824
0.030402016 -0.1704883 0.14525916 0.043108396 -0.14141496 0.2138555 -0.2883064 0.33051175
0.05020163 -0.22825225 -0.16850282 -0.424101 0.31790087 0.17976409 -0.39906025 0.11634905
0.23461764 -0.059678767 0.48732913 -0.06452247 -0.5625984 -0.16252096 0.0752634 0.20393871
-0.14062005 -0.27347198 -0.17518447 0.46460825 0.25985855 -0.12858778 -0.44267356 -0.19221446
0.2885885 -0.1903927 -0.22343192 -0.001485008 -0.2322518 0.24256106 0.5184843 0.11140843
0.28480908 0.4148236 0.37525892 0.23288678 0.06769869 0.30508223 0.3066539 0.003362961
-0.009890776 0.090498 -0.035386905 0.06952995 -0.2076124 0.17175053 -0.16826344 0.066720694
0.18804426 0.05175073 0.21946643 0.069405645 0.08587547 0.5627612 0.1481696 0.02276024
-0.35088572 0.006330275 -0.2171217 -0.26939714 -0.10555188 -0.31217828 0.111858636 -0.298267
-0.19739608 -0.19661364 0.071065746 -0.20763333 -0.17126888 -0.10803759 0.026988585 0.019740399
0.09328361 -0.39106485 -0.36489755 -0.007922079 0.203639 -0.54682636 -0.549508 -0.143493
0.034657415 -0.25903672 0.3412197 -0.13453653 -0.32107937 -0.045509804 -0.23036017 -0.28125155
0.46289933 -0.111205876 0.38485286 0.35533527 0.2863278 0.23874839 0.1339267 0.54778135
0.27658546 0.052712336 0.19721329 0.07824684 0.25210038 0.24569002 0.20483364 0.26606447
-0.55704343 0.26897526 0.15686677 0.2311247 0.11472181 -0.023322223 0.32987893 0.079860434
-0.14175265 0.20324427 -0.046687283 0.28002644 0.1673041 -0.16147533 -0.023454962 0.75842553
0.37889338 -0.7033078 0.28622976 0.32149756 0.14393254 0.36546674 0.20433824 0.1242737
0.06937428 0.0403468 0.16444506 0.13488209 0.4277187 0.6577165 0.048520584 0.11637846
-0.3777839 0.3021451 0.4997577 -0.008811602 -0.007525423 -0.09020987 0.23199528 0.2883044
0.482295 0.030739257 0.27721894 0.26238722 0.3101744 0.45038822 0.2250118 0.26707906
00000000: 534e 9a3e 0f57 26bf c6a4 c43e 64cf bd3e
00000010: 7091 07be b7f0 88be 3e4c 443e 6bce 7e3e
00000020: dc11 d03e 5acf c53e 47d9 c63d 7646 8f3e
00000030: 7ccd f33c 5e4d 33be 1e4a a5ba afd4 ce3e
00000040: 0d5a c5be 72d9 2e3e 8060 7bbe 27f5 1a3e
00000050: c6be 7b3e 2e1c 563e df4e 4ebd 769f 91be
00000060: 396e b83c 5456 a23e a1db a53e 1224 563d
00000070: df7f 403e b61c 043f 1dc3 273e 1c9c e03e
00000080: 1686 7abc d379 19be f8b4 953d 6abc d83c
00000090: 9022 54bd 5a5b a3bd 6712 89be 5a91 ab3c
000000a0: da97 41bd fd46 78bd bf0a 0fbf ff9b 94be
000000b0: 7639 133d 02ee df3d 7df7 3cbc 9166 b93c
000000c0: 2d80 f53b 9df2 7ebe f938 7b3d ef98 ddbe
000000d0: 91d9 26bf 5ece 82be 190d 0c3e 2bda 35bb
000000e0: 272f febd be38 87be 693c 3fbe 47c8 0bbd
000000f0: 9af3 c33d 7d52 9abb 7024 7abe ef89 953d
00000100: 4e4c e13e 2bd0 bcbe de08 983b ea34 313e
00000110: d2cf 583e 9487 193e c92a 633e 40c2 11bd
00000120: 9bd9 da3e 8092 c13d 8302 dd3c 979b 5f3e
00000130: d795 793d fa2e 413d fc26 003d a006 d43e
00000140: 50f1 0cbf 3755 b03e 300b 503d 7f22 5c3e
00000150: ff47 9a3d 2a19 d1be ecdb 213d fd9e 3c3e
00000160: 1100 82be 31cd 053d 65f2 d63b 2b5e 043e
00000170: da1e 773e 629d 513d b581 b6bd 7b29 003e
00000180: a60d f93c 7c94 2ebe d1be 143e 6e92 303d
00000190: 15cf 10be f0fc 5a3e e59c 93be d638 a93e
000001a0: 39a0 4d3d f5ba 69be 018c 2cbe c423 d9be
000001b0: e7c3 a23e 1414 383e a051 ccbe 6948 ee3d
000001c0: 9b3f 703e b971 74bd 3483 f93e 5b24 84bd
000001d0: 7306 10bf e56b 26be b323 9a3d 4fd5 503e
000001e0: b4fe 0fbe 8504 8cbe 8f63 33be 22e1 ed3e
000001f0: 2e0c 853e 84ac 03be 1ca6 e2be ded3 44be
00000200: dfc1 933e 4ef6 42be 56cb 64be 9aa4 c2ba
00000210: 6ad3 6dbe ed61 783e 63bb 043f 1a2a e43d
00000220: 7fd2 913e c263 d43e f021 c03e df79 6e3e
00000230: 9ca5 8a3d bd33 9c3e bd01 9d3e 2065 5c3b
00000240: ec0c 22bc 0457 b93d dcf1 10bd b865 8e3d
00000250: 5898 54be 5fdf 2f3e 404d 2cbe dca4 883d
00000260: ad8e 403e 93f8 533d cfbb 603e 8c24 8e3d
00000270: 7adf af3d 1e11 103f c6b9 173e af73 ba3c
00000280: 4ba7 b3be 326e cf3b 2755 5ebe 6cee 89be
00000290: 962b d8bd d5d5 9fbe 2416 e53d 74b6 98be
000002a0: 3322 4abe 1655 49be eb8a 913d d59d 54be
000002b0: 1c61 2fbe d042 ddbd 2a17 dd3c 9eb6 a13c
000002c0: 7a0b bf3d a739 c8be dad3 babe 9ccb 01bc
000002d0: be86 503e d0fc 0bbf 8eac 0cbf d4ef 12be
000002e0: eff4 0d3d 76a0 84be 59b4 ae3e f2c3 09be
000002f0: 8464 a4be 7d68 3abd 89e3 6bbe 3400 90be
00000300: 2401 ed3e e8bf e3bd 6f0b c53e 81ee b53e
00000310: 8f99 923e 757a 743e 1524 093e 663b 0c3f
00000320: 9c9c 8d3e e4e8 573d 48f2 493e e13f a03d
00000330: 4d13 813e 2a96 7b3e e9bf 513e 9a39 883e
00000340: 669a 0ebf 20b7 893e afa1 203e f4ab 6c3e
00000350: 45f3 ea3d 3f0e bfbc e4e5 a83e de8d a33d
00000360: 9b27 11be 441f 503e 2a3b 3fbd a05f 8f3e
00000370: c451 2b3e ca59 25be 9f24 c0bc 2d28 423f
00000380: 50fe c13e fb0b 34bf b58c 923e 549b a43e
00000390: 0d63 133e 751e bb3e 0b3e 513e 3683 fe3d
000003a0: 1a14 8e3d b042 253d 4964 283e 881e 0a3e
000003b0: f2fd da3e 1c60 283f 85bd 463d d457 ee3d
000003c0: e46c c1be c3b2 9a3e 3ee0 ff3e 8a5e 10bc
000003d0: d397 f6bb f4bf b8bd 2c90 6d3e a29c 933e
000003e0: 5fef f63e e5d0 fb3c a4ef 8d3e 9e57 863e
000003f0: 2ecf 9e3e 4999 e63e 7e69 663e 96be 883e

sequential/dense_2/BiasAdd/ReadVariableOp:0 f4 [32]
-0.0013446965 -0.0016289457 -0.0019287802 -0.00746334 -0.0041378443 -0.005118386 0.0048314272 -0.0055165105
-0.0050393166 0.0015346669 0.005174601 0.0057771727 -0.007906204 -0.0020764829 0.001973513 0.0036495859
0.0006754512 -0.001945872 -0.006840951 0.013068544 0.0002929055 -0.0010805184 -0.0028279882 -0.0054132994
0.007506361 -0.0059941234 0.011569533 -0.0056870803 -0.0035994295 0.0065072337 0.009776126 -0.004311797
00000000: 8740 b0ba 5982 d5ba 20cf fcba 098f f4bb
00000010: c196 87bb 22b8 a7bb f350 9e3b d8c3 b4bb
00000020: da20 a5bb e026 c93a b38f a93b 704e bd3b
00000030: 0689 01bc 9a15 08bb 0e56 013b e42d 6f3b
00000040: c310 313a a10c ffba 0e2a e0bb 721d 563c
00000050: 1c91 9939 2ea0 8dba c555 39bb 0c62 b1bb
00000060: ecf7 f53b 5a6a c4bb 238e 3d3c b05a babb
00000070: 68e4 6bbb a23a d53b 0b2c 203c fa49 8dbb

sequential/dense_1/MatMul/ReadVariableOp:0 f4 [32, 32]
-0.0702035 -0.007535231 -0.2958997 -0.5326814 0.00045555126 0.3487632 -0.25407106 -0.1712547
0.008251697 0.16632673 0.14242691 -0.08053808 -0.03811271 -0.056082506 -0.04832202 0.37104043
-0.61590666 0.405577 0.19011113 -0.07379725 0.30482078 -0.08769368 -0.7130927 -0.031044845
-0.35568556 0.0054278504 -0.27299556 -0.083563976 -0.4177248 -0.19542697 -0.3986302 0.05320344
0.5079791 0.13302234 0.32232425 -0.02182617 -0.019427603 0.043833375 0.14248407 0.1257376
-0.091199875 0.15474673 0.48519138 -0.15812187 -0.0860223 -0.41409808 0.1337743 0.21281822
0.08620483 -0.21654736 0.06309073 -0.35911858 -0.11240349 0.021363834 -0.052374505 0.048697617
0.9005545 0.0358744 -0.0062004193 0.0015119623 0.342934 -0.46500382 0.03464983 -0.13193451
-0.19295332 0.39850736 -0.006873544 -0.010061854 -0.4995947 -0.14348307 0.07563759 -0.09181337
-1.0944453 -0.42394754 -0.117806725 -1.3184453 -0.87125885 -0.13132401 -0.33499682 0.05733114
-0.0052625635 -0.2915445 -0.03239153 0.37126312 -0.25199112 -1.4168193 -0.011581084 0.042648196
0.11976787 -0.39971274 -0.9749128 -0.4871926 0.05173437 -0.0048182774 0.0018593189 0.09471392
0.3607004 0.19663028 -0.10503412 -0.17775114 0.06110923 0.107731625 0.05727292 -1.164853
-0.02181209 -0.28223765 -0.3458175 -0.02899187 -0.046861444 0.23572737 -0.21899879 0.12653217
0.11146462 0.17625353 0.47017643 0.21099305 0.10054901 -0.09281 -0.4815892 0.019279042
-0.2677594 -0.117669426 -0.052642155 -0.037293557 0.11925799 0.11811419 -1.0847843 0.056837447
-0.33372656 0.14985915 0.024597738 -0.54638296 0.2915611 0.089956224 -0.24838464 -0.3533883
0.012986182 0.037027515 0.112872064 0.17800684 -0.05441887 0.037748057 -0.09089585 0.21034768
-0.5427943 0.4967497 -0.09366668 0.001736825 0.048733093 0.027600555 -0.26808706 -0.13701198
-0.003621284 -0.17673285 -0.080133855 0.26553953 -0.46874687 -0.38552648 -0.4025889 0.36985037
-0.29768932 0.24908696 -0.66555625 0.07203853 -0.00078023283 0.64691645 -0.81764096 -0.24183731
0.2994995 -0.18283421 0.08152297 0.0004534924 -0.1687112 -0.13458562 0.028294664 0.41496056
-0.7398411 0.14294262 -0.17279865 0.20242754 0.22543225 -0.048207562 -0.3207991 -0.06540526
-0.052014124 -0.06360334 -0.13126408 -0.025241945 -0.68053716 -0.0393103 -0.5277842 -0.26040292
-0.2374884 0.24514927 -0.7351686 0.012212391 -0.035047982 0.10807896 -0.75710076 -0.27947664
0.100757815 -0.24149856 -0.36921516 -0.15001968 -0.057702374 -0.011265517 0.16111864 0.5067288
-0.8858524 0.20100695 0.016677866 0.0743089 0.21642548 -0.11045753 -0.2102547 -0.4538364
-0.3583748 -0.099128045 -0.19105455 -0.06599774 -0.7552778 -0.056168396 -0.6151128 -0.2451943
-0.021514714 0.47279054 0.09715161 -0.055431016 -0.5483386 -0.53618366 0.2739934 0.2406719
0.3081456 -0.316434 -0.2781612 0.030950341 -0.06760347 0.07288322 0.015559274 -0.21809885
0.034849368 -0.33517605 0.46509063 -0.2674133 0.13121368 -0.0524813 0.0029840113 -0.06767949
-0.28683648 -0.352008 -0.22272816 -0.20310088 0.085971855 0.09141253 0.09072636 -0.75187385
00000000: dac6 8fbd 19ea f6bb 2a80 97be cf5d 08bf
00000010: 0ed7 ee39 1791 b23e 9a15 82be 645d 2fbe
00000020: 2032 073c 8e51 2a3e 5cd8 113e 26f1 a4bd
00000030: 131c 1cbd c5b6 65bd 4fed 45bd 03f9 bd3e
00000040: 0fac 1dbf caa7 cf3e 7eac 423e 0323 97bd
00000050: 7811 9c3e be98 b3bd 3e8d 36bf c251 febc
00000060: 6b1c b6be 1cdc b13b 13c6 8bbe 9723 abbd
00000070: 06e0 d5be 021e 48be 4219 ccbe daeb 593d
00000080: eb0a 023f 0237 083e af07 a53e cccc b2bc
00000090: a326 9fbc a08a 333d 58e7 113e 5bc1 003e
000000a0: 00c7 babd ed75 1e3e 016b f83e b3ea 21be
000000b0: 762c b0bd aa04 d4be 21fc 083e 05ed 593e
000000c0: 288c b03d 97be 5dbe b635 813d 64de b7be
000000d0: cd33 e6bd 3503 af3c a686 56bd 2777 473d
000000e0: bd8a 663f 09f1 123d e32c cbbb 092d c63a
000000f0: 0c95 af3e fb14 eebe fbec 0d3d d719 07be
00000100: 8e95 45be 2809 cc3e 773b e1bb 79da 24bc
00000110: e0ca ffbe 3aed 12be e1e7 9a3d a608 bcbd
00000120: c916 8cbf a70f d9be a744 f1bd d1c2 a8bf
00000130: d20a 5fbf cd79 06be b484 abbe 0fd4 6a3d
00000140: 9571 acbb 5245 95be fbac 04bd 3316 be3e
00000150: fb04 81be 565a b5bf 96be 3dbc e0af 2e3d
00000160: db48 f53d 26a7 ccbe e393 79bf 4f71 f9be
00000170: 6be7 533d a4e2 9dbb 64b4 f33a 5ff9 c13d
00000180: b9ad b83e 7359 493e 211c d7bd 6504 36be
00000190: ac4d 7a3d 66a2 dc3d 0297 6a3d e719 95bf
000001a0: 45af b2bc 7481 90be fe0e b1be 5c80 edbc
000001b0: c9f1 3fbd 8462 713e 3841 60be a691 013e
000001c0: 9047 e43d ce7b 343e f7ba f03e 900e 583e
000001d0: a4ec cd3d 2b13 bebd dc92 f6be 15ef 9d3c
000001e0: c317 89be abfc f0bd 4d9f 57bd 21c1 18bd
000001f0: 883d f43d dae5 f13d 36da 8abf 62ce 683d
00000200: 35de aabe ad74 193e 3281 c93c c1df 0bbf
00000210: 7f47 953e f83a b83d 8b58 7ebe 50ef b4be
00000220: ffc3 543c 2aaa 173d 7829 e73d 6d47 363e
00000230: 52e6 5ebd b59d 1a3d 9a27 babd 6265 573e
00000240: 91f4 0abf fa55 fe3e 51d4 bfbd 2da6 e33a
00000250: 5a9c 473d 8f1a e23c b542 89be de4c 0cbe
00000260: 1053 6dbb 75f9 34be 381d a4bd ccf4 873e
00000270: 97ff efbe ba63 c5be 2220 cebe 075d bd3e
00000280: bc6a 98be a710 7f3e e561 2abf f088 933d
00000290: 8a88 4cba 519c 253f eb50 51bf 33a4 77be
000002a0: 0058 993e e438 3bbe 84f5 a63d b8c2 ed39
000002b0: a1c2 2cbe d0d0 09be 36ca e73c b675 d43e
000002c0: 3a66 3dbf 8d5f 123e 21f2 30be 2a49 4f3e
000002d0: b6d7 663e 4b75 45bd c83f a4be 31f3 85bd
000002e0: c30c 55bd 7842 82bd 176a 06be 32c8 cebc
000002f0: af37 2ebf d603 21bd de1c 07bf 8853 85be
00000300: 2930 73be 6908 7b3e 0234 3cbf 7b16 483c
00000310: 798e 0fbd 8058 dd3d 5bd1 41bf 9017 8fbe
00000320: 1d5a ce3d 664b 77be c509 bdbe c29e 19be
00000330: 5359 6cbd 0193 38bc 49fc 243e fbb8 013f
00000340: 39c7 62bf c4d4 4d3e 05a0 883c 442f 983d
00000350: a49e 5d3e 8f37 e2bd 024d 57be 3f5d e8be
00000360: e77c b7be a503 cbbd cea3 43be d329 87bd
00000370: e359 41bf d510 66bd 0878 1dbf 3714 7bbe
00000380: a03f b0bc 9a11 f23e 6cf7 c63d a20b 63bd
00000390: eb5f 0cbf 5543 09bf dd48 8c3e b272 763e
000003a0: 43c5 9d3e a303 a2be 256b 8ebe 928b fd3c
000003b0: b073 8abd cc43 953d 53ec 7e3c 4e55 5fbe
000003c0: 36be 0e3d 329c abbe 5c20 ee3e 65ea 88be
000003d0: e15c 063e a2f6 56bd 678f 433b 8b9b 8abd
000003e0: 3bdc 92be 643a b4be da12 64be adf9 4fbe
000003f0: 0312 b03d 7e36 bb3d bece b93d ce7a 40bf

sequential/dense_1/BiasAdd/ReadVariableOp:0 f4 [32]
-0.009075627 0.00939421 -0.0076101525 -0.016174234 -0.0010541053 0.0020934537 -0.016856309 0.005915189
-0.0019920743 0.01705478 0.003625813 0.047388747 0.007184656 0.007635814 -0.02287488 -0.007985877
-0.00027683566 0.0067606503 -0.001917449 0.0044268174 0.00267989 -0.009824669 -0.0021692358 0.009191575
-0.010616398 9.249e-05 -0.008193434 0.009970731 0.017090682 -0.0047257054 -0.008945748 -0.0014198229
00000000: f0b1 14bc 2cea 193c 965e f9bb d47f 84bc
00000010: e829 8aba 5332 093b 3e16 8abc 34d4 c13b
00000020: 768d 02bb 77b6 8b3c 0c9f 6d3b b41a 423d
00000030: 436d eb3b da35 fa3b 1a64 bbbc 32d7 02bc
00000040: 4124 91b9 7288 dd3b e952 fbba d60e 913b
00000050: 18a1 2f3b a6f7 20bc bd29 0ebb 4398 163c
00000060: 67f0 2dbc 31f7 c138 c13d 06bc 475c 233c
00000070: c201 8c3c 17da 9abb 3091 12bc 5a19 baba

sequential/dense/MatMul/ReadVariableOp:0 f4 [5, 32]
0.16380516 -0.11628731 -0.027539646 0.15595433 0.16503596 -0.27825925 -0.28534698 -0.4780493
0.32089546 -0.00013236963 -0.20623088 0.055443894 -0.23954795 0.16594477 0.036252044 -0.34802887
0.22453862 0.3299016 -0.30659586 -0.2299328 0.08151305 -0.19511643 0.037387952 -0.13954797
0.01824087 0.0025109737 -0.37238985 0.006543625 -0.16552374 -0.32673684 0.24593319 0.23594205
0.13475724 -0.37648177 0.57093346 -0.4298282 0.13423109 -0.40786424 -0.4612533 0.13052851
0.46569392 0.44442123 -0.3337781 0.14880313 -0.3785129 -0.33088702 -0.37354615 -0.49806228
0.27190197 0.4199942 0.1416053 -0.42336023 -0.32705155 -0.286709 -0.45324895 0.37275445
-0.35978812 0.6482191 0.41556147 0.484015 0.09523658 0.16138215 0.315977 -0.41712585
0.16395213 -0.057646405 0.013579997 -0.2629282 0.005691516 -0.3037307 -0.3140163 -0.07956489
0.021172384 0.008759179 -0.014681062 -0.0005268842 -0.26014686 0.0021963746 -0.06227726 0.40093604
-0.01841362 0.01968614 -0.20658655 0.1234127 -0.32637057 0.027347913 0.3586482 -0.25574923
0.27932134 0.00063794065 -0.16162911 -0.01563066 0.0658658 0.2748097 -0.29782602 0.00045567172
0.3546067 0.27942726 -0.1539843 -0.26179126 0.3414531 -0.19031525 -0.19550397 -0.20318593
-0.2029993 0.063169494 0.2144528 0.29992303 -0.037352465 -0.29375523 0.2757187 0.30964714
-0.22215149 -0.2168814 0.269085 -0.32908815 -0.08520682 -0.363271 0.22798389 -0.23866987
-0.37528372 -0.0009224613 -0.07111436 0.0005001896 -0.1461181 0.4335206 -0.20389824 0.49441668
-0.62760866 -0.3526245 -0.046360873 0.33799896 -0.417677 0.2937514 0.31318158 0.3432302
-0.030818267 0.2271626 0.5016198 -0.3628642 0.25915703 0.18480498 -0.4357832 0.3108471
0.3708028 0.0105262175 -0.45421273 -0.28056046 0.14333734 -0.06541426 0.25603083 0.2845369
-0.28874 -0.019785065 0.15783606 0.22829814 0.3594261 -0.39352992 0.31352037 0.058238972
00000000: 8abc 273e 0b28 eebd d39a e1bc 7eb2 1f3e
00000010: 30ff 283e ff77 8ebe 0019 92be e1c2 f4be
00000020: 694c a43e b4cc 0ab9 302e 53be 2319 633d
00000030: 0f4c 75be 6ded 293e 067d 143d d730 b2be
00000040: 74ed 653e dde8 a83e 22fa 9cbe 8173 6bbe
00000050: 50f0 a63d 9acc 47be 1c24 193d aae5 0ebe
00000060: e16d 953c 268f 243b e2a9 bebe e86b d63b
00000070: 0e7f 29be 0d4a a7be e9d5 7b3e cb9a 713e
00000080: cdfd 093e 38c2 c0be b228 123f 7112 dcbe
00000090: e073 093e 95d3 d0be 6429 ecbe 44a9 053e
000000a0: 6f6f ee3e 2e8b e33e f7e4 aabe d95f 183e
000000b0: 71cc c1be 066a a9be 7141 bfbe 0502 ffbe
000000c0: bc36 8b3e 7b09 d73e fb00 113e acc2 d8be
000000d0: 4d73 a7be 86cb 92be 3f10 e8be acd9 be3e
000000e0: 2636 b8be b0f1 253f 79c4 d43e d0d0 f73e
000000f0: 650b c33d 5d41 253e bdc7 a13e 8591 d5be
00000100: 11e3 273e a31e 6cbd a37e 5e3c 869e 86be
00000110: e67f ba3b 9782 9bbe bfc6 a0be ebf2 a2bd
00000120: b571 ad3c a982 0f3c d688 70bc 9a1e 0aba
00000130: f831 85be 0df1 0f3b 7116 7fbd 7d47 cd3e
00000140: 29d8 96bc d444 a13c 6d8b 53be ccbf fc3d
00000150: 0b1a a7be bb08 e03c bda0 b73e 90f1 82be
00000160: 3503 8f3e 793b 273a 1a82 25be df0b 80bc
00000170: a6e4 863d dbb3 8c3e a77c 98be 39e7 ee39
00000180: 028f b53e 1711 8f3e 0fae 1dbe 8109 86be
00000190: f1d2 ae3e 00e2 42be 3132 48be f90f 50be
000001a0: 0cdf 4fbe 025f 813d 8499 5b3e 838f 993e
000001b0: e6fe 18bd 1667 96be 002b 8d3e 128a 9e3e
000001c0: ae7b 63be 2816 5ebe 82c5 893e 3e7e a8be
000001d0: ea80 aebd a8fe b9be 9c74 693e e065 74be
000001e0: 3025 c0be 54d1 71ba 68a4 91bd 281f 033a
000001f0: fc9f 15be 69f6 dd3e b3ca 50be 2f24 fd3e
00000200: f6aa 20bf 338b b4be e6e4 3dbd 330e ad3e
00000210: c2d9 d5be 9566 963e 5659 a03e debb af3e
00000220: 9776 fcbc 509d 683e 286a 003f 56c9 b9be
00000230: 3bb0 843e 843d 3d3e fa1e dfbe 5a27 9f3e
00000240: ddd9 bd3e 2876 2c3c 928e e8be 9fa5 8fbe
00000250: 06c7 123e e9f7 85bd 7916 833e d2ae 913e
00000260: bbd5 93be 4a14 a2bc c79f 213e fdc6 693e
00000270: b306 b83e c17c c9be be85 a03e fd8b 6e3d

sequential/dense/BiasAdd/ReadVariableOp:0 f4 [32]
-0.48241943 -0.06705187 -0.42669863 -0.13543053 -0.37428033 -0.13787328 -0.17500447 -0.1926568
-0.31180364 -0.42635533 0.031387527 -0.31468067 -0.09211303 0.06733614 -0.20623161 -0.21455128
-0.4740504 -0.27651548 -0.29335845 -0.04498302 -0.3770221 0.15076762 -0.23585664 -0.12905331
0.06747338 -0.4369398 -0.2568706 -0.49494 -0.14291328 -0.38557443 -0.047443938 -0.22341868
00000000: aeff f6be 7e52 89bd 3e78 dabe 4dae 0abe
00000010: aca1 bfbe a72e 0dbe 5f34 33be d347 45be
00000020: baa4 9fbe 3f4b dabe 3590 003d d31d a1be
00000030: c2a5 bcbd 88e7 893d 612e 53be 55b3 5bbe
00000040: bcb6 f2be 7093 8dbe 1433 96be 1d40 38bd
00000050: 0a09 c1be d462 1a3e 6784 71be 8d26 04be
00000060: 7c2f 8a3d 93b6 dfbe 8b84 83be c768 fdbe
00000070: dc57 12be 036a c5be 9354 42bd dec7 64be

sequential/batch_normalization_1/batchnorm/sub:0 f4 [32]
-0.11889812 0.46472508 -0.30988628 0.30698466 0.52873504 0.36356902 -0.46753997 -0.18605186
0.1738685 -1.0044109 -0.44457215 -0.18689778 0.07202536 -0.028327882 -0.60793877 -1.2258329
0.37831995 0.2933367 -0.19361307 -0.64138806 -0.11481252 0.6046625 -0.11189002 0.15463328
-0.11147289 0.16292615 -0.3548442 -0.13591135 0.3559953 -0.7724947 -0.5049549 -0.37984383
00000000: dc80 f3bd 72f0 ed3e 6aa9 9ebe 182d 9d3e
00000010: 2e5b 073f b825 ba3e 6661 efbe 6184 3ebe
00000020: 960a 323e 8990 80bf f69e e3be 2262 3fbe
00000030: 0882 933d e00f e8bc e0a1 1bbf 18e8 9cbf
00000040: 27b3 c13e 3a30 963e 8142 46be 0232 24bf
00000050: d422 ebbd 29cb 1a3f 9826 e5bd 3058 1e3e
00000060: e64b e4bd 1dd6 263e 24ae b5be 582c 0bbe
00000070: 0445 b63e 36c2 45bf b944 01bf e47a c2be

sequential/batch_normalization_1/batchnorm/mul:0 f4 [32]
1.0792736 0.6619804 1.2211124 0.8386112 0.62961566 1.0552155 0.77648497 1.2604452
0.98575306 1.1059338 1.160645 0.7674227 0.8844479 1.0309429 0.96370393 0.85713255
0.7245962 0.8172161 0.8132776 1.1661513 1.1064951 0.74882144 1.0189651 0.9554023
1.5720438 1.2020558 1.2129315 1.0946176 0.6439146 0.66243625 1.4150487 0.9937972
00000000: a325 8a3f 8c77 293f 694d 9c3f 39af 563f
00000010: 7e2e 213f 4d11 873f b8c7 463f 4556 a13f
00000020: 505a 7c3f 3d8f 8d3f 0490 943f d075 443f
00000030: 2d6b 623f f0f5 833f 4db5 763f 0a6d 5b3f
00000040: 237f 393f 1335 513f f632 503f 7244 953f
00000050: a2a1 8d3f c3b2 3f3f 736d 823f 3f95 743f
00000060: bb38 c93f f7dc 993f 5741 9b3f 6e1c 8c3f
00000070: 96d7 243f 6c95 293f 5120 b53f 7e69 7e3f

sequential/batch_normalization/batchnorm/sub:0 f4 [32]
0.13426608 -0.07870664 0.69161665 0.44479477 -0.014411859 -0.26976722 0.26541448 0.33877733
-0.13286725 -0.17224838 -0.44893116 0.18310319 0.2634651 0.4560077 0.24031028 -0.23353818
0.35155475 -0.24388242 -0.07949565 0.2225419 -0.042782933 0.23048224 0.17347032 -0.04128447
-0.7194362 0.1202631 0.33904603 0.29735798 0.3470611 0.49330446 0.44825265 0.03392908
00000000: 0c7d 093e f230 a1bd ca0d 313f 24bc e33e
00000010: b81f 6cbc ee1e 8abe 68e4 873e 3974 ad3e
00000020: 5a0e 08be e161 30be 4eda e5be 677f 3b3e
00000030: e6e4 863e d779 e93e e613 763e a224 6fbe
00000040: fcfe b33e 50bc 79be 9ece a2bd 06e2 633e
00000050: 283d 2fbd 8903 6c3e 34a2 313e e819 29bd
00000060: f92c 38bf 804c f63d 7197 ad3e 4e3f 983e
00000070: feb1 b13e 6792 fc3e 5f81 e53e 38f9 0a3d

sequential/batch_normalization/batchnorm/mul:0 f4 [32]
1.5342124 0.6650508 0.9368989 0.93336266 1.0756596 0.82131124 1.0987464 1.4057564
0.7268484 0.977979 1.1338326 0.737507 0.8118685 0.9300969 0.8521553 1.053409
1.0942018 1.1314896 0.6039086 1.4419967 1.3070469 0.78234535 1.0743697 0.73982024
1.3771724 1.0681036 0.6716461 0.9106868 1.7255114 0.9996308 1.4687496 1.1944866
00000000: 1261 c43f c540 2a3f 9bd8 6f3f dbf0 6e3f
00000010: 37af 893f 7441 523f b9a3 8c3f d3ef b33f
00000020: bd12 3a3f d55c 7a3f 6d21 913f 42cd 3c3f
00000030: 9dd6 4f3f d51a 6e3f da26 5a3f 1bd6 863f
00000040: ce0e 8c3f a7d4 903f c199 1a3f 5993 b83f
00000050: 504d a73f c947 483f f284 893f dc64 3d3f
00000060: 2f47 b03f 9eb7 883f 00f1 2b3f c522 693f
00000070: 8fdd dc3f cee7 7f3f fdff bb3f f0e4 983f
